chatbot_model.pth (torch, 64541 bytes, 6 tensors)

fc1.weight f4 [128, 52]
0.20673019 -0.058816005 0.099582605 -0.06787815 0.05152762 0.14418668 0.0405444 -0.11351809
0.113537416 -0.117079504 0.07629787 0.036507018 -0.11743139 -0.100882635 0.10301162 -0.05770373
0.2099014 -0.113298744 0.00064509705 -0.16345719 0.0040036873 0.12306377 -0.088936165 0.08468628
0.066734724 -0.02738157 -0.07457589 0.2126888 -0.1143348 0.12852985 0.15990752 0.1716907
-0.037797045 0.08413806 0.21785174 -0.018634297 0.05625959 0.04610901 0.1393124 0.06469777
0.06754705 -0.0167688 -0.08234294 0.09171853 -0.0611816 0.026031831 0.112638555 0.04284132
-0.0850869 -0.030958988 -0.16059083 -0.10546073 0.18428297 0.021655634 -0.09547956 0.07719158
-0.1178389 0.08588877 0.1731734 -0.13678819 0.036685545 0.116170056 -0.011248617 0.21299994
0.050957028 -0.07859026 -0.014496571 -0.007309153 -0.011934629 -0.04339216 -0.08442938 -0.010644376
-0.030249432 -0.03969046 -0.035004254 0.0105123455 0.16866112 0.06294242 -0.0053005964 0.105149746
-0.029911574 -0.03415902 0.2202569 0.0011322493 -0.00471005 0.07664802 0.19560696 0.11215659
0.22274716 0.08050261 -0.03152423 -0.056568164 0.088688225 -0.13058192 -0.14755796 0.20270291
-0.1260015 -0.0660933 0.15494317 -0.09673147 -0.07701019 0.1321543 0.10641465 -0.12819755
-0.15981306 -0.12955253 -0.011211395 0.013238673 0.09751983 0.038400203 -0.09937999 -0.10550816
0.050568815 -0.039914414 -0.10854791 0.017334998 -0.10287244 0.14303806 0.03261842 -0.124021985
0.099450015 -0.06278249 0.05847786 -0.20535609 0.16569124 -0.13565414 0.112496614 -0.13206735
-0.05263959 -0.025961157 0.04063275 0.014238253 -0.059443697 -0.023017466 -0.08989371 0.1071419
-0.13703729 0.029088026 -0.19690345 -0.08945537 -0.008797012 -0.025226615 0.085963465 -0.061662115
0.029930037 -0.12770091 -0.06341326 -0.011728398 0.12261681 0.092583746 0.055420328 0.1883415
0.11186312 0.09565693 -0.07667985 -0.12262302 0.093630515 0.043787356 -0.010458916 -0.12374636
0.053919375 0.14508048 0.06942363 0.03211918 -0.032627396 -0.02003543 -0.11914889 -0.07511323
0.021469858 0.15493034 0.020769283 0.18931153 -0.05789495 -0.023594769 -0.09340469 -0.039026123
0.08402844 0.13846838 0.12545557 -0.029963067 -0.08232681 -0.1434914 0.07046987 -0.119611464
-0.13209195 -0.098466985 0.1565584 0.115259886 0.14194521 -0.09094011 0.0030123147 -0.06980363
-0.022918198 0.19128557 0.027567886 -0.1098504 0.22543965 -0.076079465 -0.095307946 -0.024453953
0.15964316 -0.0032916123 -0.04655609 -0.082030706 0.097729035 0.13358483 0.17720029 -0.0885301
0.0011434895 0.10298098 -0.038023785 0.183401 0.1555343 -0.021247515 -0.03725526 0.122713335
-0.05524745 0.17346227 -0.009145995 -0.06306911 0.079502426 0.122849934 0.07463674 0.09691387
-0.08198323 0.1998893 0.13618073 0.14634535 -0.042198 0.013518613 -0.13013427 -0.030570073
-0.032573417 -0.008872371 -0.0059287064 -0.059361834 0.19944479 -0.11705865 0.011974685 0.07993412
0.12943791 -0.058740024 -0.03413084 0.045193363 -0.17829782 0.15164952 0.10281619 -0.1356196
0.18554924 -0.02640292 0.091893695 -0.06510336 0.14249527 -0.07693984 -0.14892311 -0.084691554
00000000: 14b1 533e 0de9 70bd f7f1 cb3d b303 8bbd
00000010: a00e 533d aca5 133e e311 263d 2c7c e8bd
00000020: 4e86 e83d 61c7 efbd 0f42 9c3d 6288 153d
00000030: de7f f0bd 8e9b cebd c2f7 d23d bf5a 6cbd
00000040: 65f0 563e 2c09 e8bd bb1b 293a 5261 27be
00000050: 5d31 833b dc08 fc3d 2a24 b6bd 0070 ad3d
00000060: 37ac 883d 504f e0bc 3fbb 98bd 18cb 593e
00000070: 5d28 eabd 549d 033e ccbe 233e b0cf 2f3e
00000080: 13d1 1abd 9350 ac3d 8714 5f3e f4a6 98bc
00000090: 7570 663d cddc 3c3d e9a7 0e3e 4480 843d
000000a0: 1c56 8a3d b95e 89bc 6aa3 a8bd edd6 bb3d
000000b0: 8f99 7abd b540 d53c 0baf e63d 617a 2f3d
000000c0: 0a42 aebd b49d fdbc ec71 24be ccfb d7bd
000000d0: adb4 3c3e 2867 b13c ca8a c3bd 9e16 9e3d
000000e0: 8555 f1bd 74e6 af3d 5e54 313e 3412 0cbe
000000f0: 9543 163d 91ea ed3d 1f4c 38bc a81c 5a3e
00000100: 51b8 503d eef3 a0bd 0783 6dbc 9f81 efbb
00000110: 7689 43bc fabb 31bd 50e9 acbd c065 2ebc
00000120: a8cd f7bc 7792 22bd 9f60 0fbd f93b 2c3c
00000130: 80b5 2c3e f5e7 803d a0b0 adbb c058 d73d
00000140: 1e09 f5bc 54ea 0bbd 068b 613e fb67 943a
00000150: c356 9abb a3f9 9c3d 314d 483e 5bb2 e53d
00000160: d517 643e 8dde a43d 8d1f 01bd 05b4 67bd
00000170: 2ca2 b53d 44b7 05be 6f19 17be 5a91 4f3e
00000180: 8a06 01be ed5b 87bd 6ca9 1e3e 261b c6bd
00000190: 85b7 9dbd 7553 073e edef d93d 3846 03be
000001a0: 09a6 23be 6ba9 04be 00b0 37bc 05e7 583c
000001b0: 7ab8 c73d 8849 1d3d bc87 cbbd aa14 d8bd
000001c0: 3f21 4f3d 4c7d 23bd 5e4e debd 2002 8e3c
000001d0: c9ae d2bd 9278 123e e49a 053d 3dff fdbd
000001e0: 73ac cb3d 1b94 80bd 7b86 6f3d de48 52be
000001f0: f7aa 293e ebe8 0abe a064 e63d aa3c 07be
00000200: 9c9c 57bd 7eac d4bc 876e 263d 9047 693c
00000210: 3c7b 73bd 208f bcbc 321a b8bd 366d db3d
00000220: 8153 0cbe 034a ee3c 0fa1 49be 6134 b7bd
00000230: 5821 10bc 0ca8 cebc 9d0d b03d 6a91 7cbd
00000240: d62f f53c 07c4 02be d0de 81bd 7728 40bc
00000250: 861e fb3d 8c9c bd3d 6d00 633d 98dc 403e
00000260: 7e18 e53d c8e7 c33d 530a 9dbd c721 fbbd
00000270: 5bc1 bf3d 5f5a 333d e05b 2bbc bb6e fdbd
00000280: 90da 5c3d fa8f 143e fa2d 8e3d 678f 033d
00000290: 4ea4 05bd 5821 a4bc 5504 f4bd f7d4 99bd
000002a0: 8ee1 af3c 0fa6 1e3e 5824 aa3c e2da 413e
000002b0: 4123 6dbd d149 c1bc f54a bfbd dbd9 1fbd
000002c0: 1a17 ac3d a8ca 0d3e 6d77 003e 1b75 f5bc
000002d0: f59a a8bd 69ef 12be 8252 903d dbf6 f4bd
000002e0: 1d43 07be 0fa9 c9bd d850 203e 600d ec3d
000002f0: 165a 113e cf3e babd 416a 453b 35f5 8ebd
00000300: f2be bbbc 5de0 433e 0cd6 e13c 3ff9 e0bd
00000310: a7d9 663e 8dcf 9bbd d030 c3bd a853 c8bc
00000320: 7f79 233e 17b8 57bb 99b1 3ebd b7ff a7bd
00000330: 2926 c83d 76ca 083e fe73 353e 454f b5bd
00000340: 24e1 953a b1e7 d23d d4be 1bbd 79cd 3b3e
00000350: 6244 1f3e 450f aebc f998 18bd 2151 fb3d
00000360: 264b 62bd 18a0 313e 15d9 15bc 612a 81bd
00000370: 2bd2 a23d bf98 fb3d 26db 983d c77a c63d
00000380: d3e6 a7bd c8af 4c3e f672 0b3e 8edb 153e
00000390: cfd7 2cbd 2c7d 5d3c eb41 05be 176e fabc
000003a0: b46b 05bd 6c5d 11bc 9845 c2bb 6525 73bd
000003b0: 413b 4c3e 72bc efbd 7831 443c 80b4 a33d
000003c0: 5f8b 043e 6199 70bd c8cc 0bbd ad1c 393d
000003d0: b493 36be 034a 1b3e 4b91 d23d dddf 0abe
000003e0: 9f00 3e3e f04a d8bc c332 bc3d e954 85bd
000003f0: 48ea 113e a392 9dbd 4d7f 18be c472 adbd

fc1.bias f4 [128]
0.11607781 0.030732116 0.0967939 0.17970856 0.21028017 0.0077871406 0.10897315 0.1430262
0.010866322 0.021265887 -0.024141978 0.2226154 0.12086542 0.008403536 0.13366653 0.14070441
0.12822568 0.014851401 0.273363 0.069284126 0.06912651 0.19251744 0.0016964481 0.19480857
0.102347285 0.08255479 0.10005101 0.13068175 0.07687303 -0.12495409 -0.020492643 0.1352291
0.13027461 0.030939205 0.049232874 0.19591497 0.05943879 -0.0144517915 -0.0016426591 0.15183589
-0.1418396 -0.03173559 0.17308939 -0.0074004196 0.027542235 0.06203481 0.22146913 -0.0058445213
-0.0036634044 0.18092431 -0.016509613 -0.003613434 0.019337658 0.06995686 0.108036414 0.02619284
0.15249744 0.08497582 0.078547075 0.2332276 0.14784916 0.025824424 0.2409438 0.06141101
0.14252132 -0.0072289994 -0.006430025 0.054257825 0.1935679 0.20566587 0.041992236 0.14573012
-0.06893833 0.094865635 0.21529165 0.07536866 0.16485386 0.16591176 0.16757545 -0.042863995
0.18263432 -0.03120165 0.10496179 0.18797989 0.05488011 0.16675523 0.009005724 -0.016087648
0.09318136 0.17317955 0.14858828 0.18218267 0.09401876 0.16124412 0.11702808 -0.039728053
0.03971018 0.19702141 0.13534865 0.10123119 0.0906822 -0.01422971 0.03799822 -0.089172505
0.09614776 0.20831667 0.07173702 -0.014496507 0.16058566 0.19616522 -0.021289472 0.20639016
0.17405447 0.06040427 0.13783193 -0.17048419 0.18813312 -0.024221357 0.052745648 0.1958904
0.11224444 0.10009681 0.12657408 0.04740348 0.058189623 -0.014964059 0.046773173 -0.06769301
00000000: 34ba ed3d ebc1 fb3c e13b c63d 8505 383e
00000010: af53 573e 452b ff3b 512d df3d 7675 123e
00000020: a808 323c cc35 ae3c 66c5 c5bc 4bf5 633e
00000030: 4a88 f73d fcae 093c e1df 083e d114 103e
00000040: 984d 033e 4a53 733c 3cf6 8b3e d6e4 8d3d
00000050: 3392 8d3d 4b23 453e 5a5b de3a e67b 473e
00000060: 749b d13d 7c12 a93d 8be7 cc3d 70d1 053e
00000070: 9b6f 9d3d eee7 ffbd 30e0 a7bc 7f79 0a3e
00000080: b566 053e 3774 fd3c 69a8 493d ef9d 483e
00000090: 1776 733d 35c7 6cbc 7e4e d7ba de7a 1b3e
000000a0: 663e 11be 2efd 01bd 583e 313e 387f f2bb
000000b0: 41a0 e13c 3718 7e3d cec8 623e 6683 bfbb
000000c0: ba15 70bb 3944 393e 2b3f 87bc 5dcf 6cbb
000000d0: 026a 9e3c 8b45 8f3d 3242 dd3d 5e92 d63c
000000e0: 4a28 1c3e cd07 ae3d 4add a03d 37d3 6e3e
000000f0: c565 173e be8d d33c f9b9 763e 1c8a 7b3d
00000100: 1cf1 113e 3ee1 ecbb f6b2 d2bb 743d 5e3d
00000110: aa36 463e 139a 523e 0d00 2c3d 473a 153e
00000120: 8a2f 8dbd ea48 c23d 6a75 5c3e e25a 9a3d
00000130: 73cf 283e c6e4 293e e698 2b3e 2892 2fbd
00000140: 7e04 3b3e 9a9a ffbc 35f6 d63d cd7d 403e
00000150: f7c9 603d e2c1 2a3e bf8c 133c 3eca 83bc
00000160: ded5 be3d fb55 313e 8727 183e 188e 3a3e
00000170: e88c c03d 2e1d 253e 6bac ef3d e2b9 22bd
00000180: 24a7 223d fbbf 493e d698 0a3e 4c52 cf3d
00000190: 97b7 b93d bb23 69bc 06a4 1b3d 13a0 b6bd
000001a0: 1ee9 c43d f750 553e dcea 923d c282 6dbc
000001b0: 9170 243e 89df 483e 4267 aebc f157 533e
000001c0: 563b 323e 786a 773d d023 0d3e 6893 2ebe
000001d0: f8a5 403e de6b c6bc d20b 583d 7e97 483e
000001e0: 6ae0 e53d 8eff cc3d a39c 013e 272a 423d
000001f0: 3e58 6e3d d02b 75bc 3a95 3f3d a2a2 8abd

fc2.weight f4 [64, 128]
-0.13031802 -0.035605956 0.036924034 -0.0051327376 0.035568453 -0.07153893 0.12593088 0.22827269
-0.029832378 0.15724368 -0.08449446 0.086248554 -0.06926045 0.058319926 0.019154118 -0.016041595
0.118581116 -0.0821451 0.06355603 0.036786545 0.04729109 0.114790894 -0.12449658 0.15191165
-0.001025494 0.09392472 0.11463223 0.20720915 0.0011374475 -0.07326331 0.034676734 0.12611192
0.05491324 -0.035359897 -0.07926262 0.06775178 -0.06467561 -0.14195903 -0.015701123 0.03770484
-0.020170078 -0.002820062 -0.006141597 0.008112537 0.098213255 0.006937989 0.09224305 -0.15204632
0.112680145 -0.031715985 -0.079727285 -0.1090174 -0.07755597 0.0930827 0.05703507 -0.025645075
0.06578689 -0.0456811 0.102392085 0.07878845 0.018127628 0.11139864 0.15051433 -0.028737854
0.14725648 -0.1447889 0.024522942 0.13735811 0.11527161 0.18086408 -0.012319571 0.0024301158
0.030598698 -0.07306832 0.012374541 0.0021480666 -0.0037505634 0.21767567 0.15445305 -0.053062566
0.102399394 -0.0028301498 -0.07237381 0.1191562 0.10928278 0.05998092 -0.04158328 -0.111416444
-0.0032328935 -0.00825426 -0.12363314 0.16660018 -0.020197507 -0.015021964 0.15251411 -0.019430704
-0.04590425 0.15329207 0.025322268 -0.032356482 0.03825297 -0.15818429 0.009295946 -0.08503904
0.11864843 0.04875645 0.0069697816 0.011913419 0.16039065 0.14925711 0.01396212 0.13259065
0.10306004 0.01753701 0.11976328 0.06297775 -0.06566013 0.048749402 -0.01861392 0.13060077
0.11735602 0.07336801 0.047743667 -0.12701865 0.06706245 0.010403284 -0.059535015 -0.06959165
-0.05746398 -0.019632105 0.055171236 0.113012485 0.20320761 0.01969425 0.031634092 0.10368445
0.030585002 0.070700414 0.040848885 0.098508656 -0.039496016 0.06941976 -0.069639884 0.0052991165
-0.03834427 0.05464148 0.17327751 -0.070842765 0.16695122 0.17223813 0.06585708 -0.022373913
0.0129542 0.20115021 0.104885906 0.22603956 0.05303838 0.07789829 -0.082576096 0.026658151
0.03630744 0.06872654 0.00460392 -0.0140366 0.022801278 -0.06496665 0.052157495 -0.011001309
0.0553656 -0.05785144 0.09857968 0.054383185 0.06969407 0.035225697 0.11464926 -0.11403258
0.07771269 0.08859983 -0.013133586 -0.14044392 0.06369482 -0.0025188085 0.1115059 -0.043379214
-0.013724253 -0.00020040333 0.07279372 0.08609016 0.09372154 -0.035731792 0.1168566 -0.035949674
0.18527368 0.0448032 0.1358025 0.14245158 0.011799956 0.20676105 0.16303967 -0.038316812
0.029939825 -0.07329768 0.0794822 0.12995976 -0.0016239244 0.22360218 0.06028261 -0.019883052
0.12834936 0.022436855 0.05241534 0.106644824 -0.017348135 0.046636958 0.030784786 -0.044113915
0.13557073 0.07689257 -0.042481385 0.2293812 -0.062224254 0.006274909 0.053535905 0.017214818
0.07553035 0.052063692 0.098357566 0.031121915 0.23599496 -0.118578434 -0.076129496 -0.03011813
0.14173082 0.135535 0.013115553 0.0666972 0.16345207 0.14850421 0.13289815 -0.0137430625
0.012307031 0.06504286 0.13288894 0.0062413607 0.009773229 0.10521374 -0.023056347 0.08839897
0.09769025 -0.08830598 -0.051597957 -0.050734814 0.1001665 0.14292556 -0.042194135 0.019217283
00000000: 1672 05be 8dd7 11bd a83d 173d 8630 a8bb
00000010: 3ab0 113d 0183 92bd 06f4 003e 51c0 693e
00000020: 0863 f4bc 7d04 213e 6e0b adbd 15a3 b03d
00000030: 6cd8 8dbd e0e0 6e3d 19e9 9c3c aa69 83bc
00000040: a8da f23d b13b a8bd aa29 823d 7dad 163d
00000050: 4db4 413d 7d17 eb3d 10f8 febd ba8e 1b3e
00000060: de69 86ba 9b5b c03d 4dc4 ea3d a32e 543e
00000070: 6816 953a 130b 96bd 3109 0e3d 7c23 013e
00000080: b5ec 603d 8ad5 10bd 7154 a2bd 72c1 8a3d
00000090: a574 84bd b55d 11be a49f 80bc 6470 1a3d
000000a0: b83b a5bc cad0 38bb 733f c9bb 72ea 043c
000000b0: 0824 c93d 1258 e33b ede9 bc3d 08b2 1bbe
000000c0: d9c4 e63d 9fe8 01bd 0f48 a3bd 8444 dfbd
000000d0: aad5 9ebd 25a2 be3d 9b9d 693d 9f15 d2bc
000000e0: 47bb 863d 1b1c 3bbd f1b2 d13d d75b a13d
000000f0: 6480 943c f824 e43d 6e20 1a3e a66b ebbc
00000100: 67ca 163e 8b43 14be 56e4 c83c 9ba7 0c3e
00000110: 8613 ec3d 6f34 393e 07d8 49bc 9442 1f3b
00000120: 1faa fa3c d8a4 95bd 96be 4a3c 94c6 0c3b
00000130: 03cc 75bb 5fe6 5e3e f128 1e3e 2258 59bd
00000140: c6b6 d13d 097a 39bb b838 94bd 2a08 f43d
00000150: a6cf df3d 8eae 753d 3b53 2abd 4e2e e4bd
00000160: f4de 53bb e03c 07bc 5f33 fdbd 3d99 2a3e
00000170: 3e75 a5bc af1e 76bc a92c 1c3e 242d 9fbc
00000180: 1806 3cbd 99f8 1c3e a570 cf3c 3b88 04bd
00000190: 25af 1c3d 10fb 21be 064e 183c f328 aebd
000001a0: f3fd f23d d8b4 473d c462 e43b 8030 433c
000001b0: 723d 243e dbd6 183e 60c1 643c d8c5 073e
000001c0: 2411 d33d c7a9 8f3c 7346 f53d 7bfa 803d
000001d0: d178 86bd 74ad 473d 387c 98bc 35bc 053e
000001e0: 5a58 f03d f841 963d dd8e 433d 2d11 02be
000001f0: 0a58 893d 8972 2a3c fdda 73bd 1186 8ebd
00000200: 5a5f 6bbd 82d3 a0bc 3cfb 613d 1773 e73d
00000210: a815 503e d655 a13c c092 013d 8358 d43d
00000220: 668d fa3c 61cb 903d 2951 273d e8be c93d
00000230: 93c6 21bd f22b 8e3d 5b9f 8ebd 36a4 ad3b
00000240: e20e 1dbd bfcf 5f3d a96f 313e 0316 91bd
00000250: 43f5 2a3e 315f 303e 14e0 863d 7f49 b7bc
00000260: da3d 543c 52fa 4d3e 6cce d63d ea76 673e
00000270: c63e 593d 2389 9f3d a81d a9bd 3262 da3c
00000280: 1cb7 143d 80c0 8c3d 7bdc 963b c4f9 65bc
00000290: bfc9 ba3c 3c0d 85bd 19a3 553d d63e 34bc
000002a0: 0ac7 623d a2f5 6cbd 25e4 c93d e7c0 5e3d
000002b0: c4bb 8e3d d248 103d 3bcd ea3d ea89 e9bd
000002c0: d527 9f3d d473 b53d 412e 57bc 88d0 0fbe
000002d0: 6e72 823d 9812 25bb 355d e43d 67ae 31bd
000002e0: b0db 60bc 5c23 52b9 e014 953d 0a50 b03d
000002f0: 14f1 bf3d 805b 12bd 8352 ef3d f73f 13bd
00000300: 62b8 3d3e 8f83 373d d00f 0b3e d4de 113e
00000310: 9a54 413c 2bb9 533e dff3 263e 17f2 1cbd
00000320: 5d44 f53c 181d 96bd 90c7 a23d 2c14 053e
00000330: dcd9 d4ba f8f7 643e e6ea 763d c8e1 a2bc
00000340: 046e 033e 7fcd b73c 78b1 563d 9a68 da3d
00000350: ad1d 8ebc 6506 3f3d 6030 fc3c cbb0 34bd
00000360: 0ed3 0a3e da79 9d3d f600 2ebd e8e2 6a3e
00000370: dcde 7ebd c09d cd3b 7748 5b3d 1706 8d3c
00000380: a8af 9a3d bd40 553d b16f c93d 63f3 fe3c
00000390: aaa8 713e 40d9 f2bd c8e9 9bbd 4cba f6bc
000003a0: e221 113e b0c9 0a3e 9ee2 563c 8b98 883d
000003b0: fb5f 273e 7d11 183e 7416 083e 952a 61bc
000003c0: 6ea3 493c 3135 853d 0a14 083e 5484 cc3b
000003d0: e51f 203c 4d7a d73d aae0 bcbc 850a b53d
000003e0: d311 c83d c4d9 b4bd 6158 53bd 4fcf 4fbd
000003f0: 1824 cd3d 145b 123e c2d3 2cbd 906d 9d3c

fc2.bias f4 [64]
0.034209512 0.12157629 0.0822475 0.043568466 0.052405447 0.07450837 -0.02927053 0.027758427
0.05618734 0.047936898 0.13476798 0.09354977 0.1314137 -0.037661083 0.0818435 0.0730801
-0.016472632 0.07008987 0.079853274 0.12388225 0.012706245 0.021228796 0.14614753 0.016503211
0.10115591 -0.0541206 0.02638668 0.09287454 0.05488405 0.10539016 0.13963568 0.04607003
0.06737487 0.14440131 0.03469721 0.0712732 0.1442239 0.13968098 -0.02412617 0.017484562
0.1381394 0.123467594 0.021685885 0.043916546 -0.059103116 0.05653574 -0.023594443 0.13119692
0.017394422 -0.026932266 0.023401449 0.07711612 -0.051250093 -0.037711013 -0.024908295 -0.030950548
0.019543339 -0.014512239 0.08097371 0.124904536 0.11261666 -0.052704904 0.10015321 0.09892521
00000000: 461f 0c3d fdfc f83d 6171 a83d d974 323d
00000010: 18a7 563d d897 983d c0c8 efbc a465 e33c
00000020: b224 663d 7b59 443d 9e00 0a3e 0697 bf3d
00000030: 5091 063e 8242 1abd 919d a73d 05ab 953d
00000040: 9df1 86bc 478b 8f3d 1d8a a33d fab5 fd3d
00000050: db2d 503c 03e8 ad3c b3a7 153e be31 873c
00000060: d42a cf3d 90ad 5dbd e128 d83c 0235 be3d
00000070: 19ce 603d ccd6 d73d a8fc 0e3e eeb3 3c3d
00000080: d6fb 893d f0dd 133e a91e 0e3d aff7 913d
00000090: 6eaf 133e 8808 0f3e 3fa4 c5bc c93b 8f3c
000000a0: 6a74 0d3e 94dc fc3d 99a6 b13c d6e1 333d
000000b0: 1c16 72bd 0592 673d 2249 c1bc 7c58 063e
000000c0: bf7e 8e3c 0ea1 dcbc 65b4 bf3c 0eef 9d3d
000000d0: 9eeb 51bd dd76 1abd 7b0c ccbc 018c fdbc
000000e0: 5a19 a03c bec4 6dbc 8bd5 a53d f3cd ff3d
000000f0: 90a3 e63d 19e1 57bd 201d cd3d 4d99 ca3d

fc3.weight f4 [5, 64]
0.13310115 0.14526692 -0.18577482 -0.2719289 0.17758358 -0.23705955 0.20655169 -0.133239
0.098809056 -0.19508146 0.021616071 0.16385463 0.20354351 0.02575271 -0.1319064 -0.272126
-0.22533178 0.16075835 0.18187198 -0.17784299 -0.10921385 -0.080895014 -0.12523411 -0.07881372
0.1717432 -0.15784702 0.1846719 -0.12274911 0.021883748 -0.0063871285 0.12492874 -0.15678148
0.24937023 0.03729719 0.111206725 -0.21118322 0.12589777 0.1379678 -0.14578143 0.10396698
0.14077234 -0.02963221 -0.22364733 -0.06307706 0.040764514 -0.16876182 0.25226694 0.08089879
0.15587221 -0.21879137 0.1645972 -0.19344369 -0.31472936 0.0820127 0.025978226 -0.18259221
0.14134479 -0.046611294 0.23885342 -0.07237712 0.07512144 0.1309449 -0.108107276 -0.3077391
0.1875391 0.18263076 0.24279688 0.12530404 0.09711629 -0.20807722 -0.00024668046 -0.11020473
-0.17255385 -0.2121765 0.091909625 -0.062120438 0.094129175 -0.20469552 -0.10660444 0.11134737
-0.26681155 -0.32106557 0.1381756 -0.0065313405 0.19432099 -0.16813539 0.12382674 -0.31957227
0.07697609 -0.102871224 -0.026447263 -0.14703178 0.05824394 0.122552186 0.06744834 0.20077455
-0.05399846 0.054572675 -0.047022473 0.25167403 0.12759389 0.103666656 0.054665327 0.11340305
0.20086716 0.2563677 -0.2144691 -0.09346519 -0.039711714 -0.24782105 -0.15986633 0.099286005
0.09503721 0.16462266 -0.27908614 -0.17267431 -0.22776587 -0.24311769 -0.32828203 -0.14894442
-0.30538455 -0.29358914 -0.04010476 0.18425964 0.07619168 -0.099325255 0.17185366 0.034404498
-0.23932709 -0.31037572 -0.14033443 -0.111965194 0.16074821 0.1283046 -0.26807508 -0.073505886
0.18308721 0.112550996 -0.27692875 0.24356513 0.17066965 0.228613 0.22742845 -0.106737986
0.12256682 0.01875391 0.11351873 -0.14287572 -0.16402976 -0.12781344 -0.09897113 0.07973883
-0.19079226 -0.15832242 -0.13128288 -0.057362974 -0.26867944 -0.31292367 0.13074894 -0.15197991
-0.17115922 -0.05945221 -0.22946131 -0.24491312 -0.22446279 0.09379164 0.028165428 -0.23576772
-0.14388512 0.20027275 0.13117974 -0.18275788 -0.24915755 -0.011825265 0.011135559 -0.27589682
-0.27375934 -0.103359304 0.18167798 0.055647884 -0.036197368 0.15971392 0.216083 0.059549738
0.13466355 -0.1312446 -0.011010015 0.1335831 -0.20633662 -0.22675762 -0.25113687 0.21117166
-0.08225841 0.0043455893 0.013822397 -0.19933796 -0.2294759 0.08828798 -0.14276081 -0.04579868
-0.26175028 0.087617606 0.054388586 0.09413604 -0.0324784 -0.08970269 0.16355039 -0.22220618
-0.20838435 0.12088863 -0.22854917 0.16866641 -0.22859111 0.25487304 -0.0587756 0.10366321
-0.22843593 0.1983167 -0.15928999 -0.10441765 0.10847202 -0.0021047948 -0.020082464 -0.019145593
0.08794539 -0.23689125 0.18342908 0.08555077 -0.16015467 0.031219687 -0.083109796 -0.2767136
-0.26241526 -0.06125408 -0.07960035 0.13494366 0.14177331 0.12857276 -0.2981991 0.10527101
0.10862523 0.12450887 0.00041354142 -0.2518347 -0.020257073 0.09273943 0.049182657 0.042127818
0.16570817 -0.114138015 -0.27974874 -0.11254435 -0.23638521 0.19490388 0.16723067 0.084999286
00000000: ab4b 083e dac0 143e c13b 3ebe 443a 8bbe
00000010: 78d8 353e bdbf 72be 4982 533e ce6f 08be
00000020: 675c ca3d 6fc3 47be 3014 b13c 82c9 273e
00000030: b66d 503e 59f7 d23c 7912 07be 1954 8bbe
00000040: 60bd 66be d69d 243e a63c 3a3e 791c 36be
00000050: 83ab dfbd 49ac a5bd 5f3d 00be 1669 a1bd
00000060: 73dd 2f3e a6a2 21be a11a 3d3e e363 fbbd
00000070: 8c45 b33c 1e4b d1bb a4da ff3d 538b 20be
00000080: e95a 7f3e f0c4 183d 5ac0 e33d 6a40 58be
00000090: 58eb 003e 6e47 0d3e ba47 15be a4ec d43d
000000a0: a026 103e 40bf f2bc ce03 65be 8c2e 81bd
000000b0: b1f8 263d e6cf 2cbe 2229 813e 44ae a53d
000000c0: f79c 1f3e d80a 60be 2b8c 283e 1a16 46be
000000d0: 3524 a1be 46f6 a73d 4ad0 d43c 74f9 3abe
000000e0: b0bc 103e 7ceb 3ebd fe95 743e 753a 94bd
000000f0: 45d9 993d 6b16 063e 5967 ddbd fb8f 9dbe
00000100: 400a 403e 8f03 3b3e bf9f 783e b44f 003e
00000110: e8e4 c63d 3212 55be e454 81b9 04b3 e1bd
00000120: f5b1 30be cc44 59be 1d3b bc3d 0072 7ebd
00000130: ccc6 c03d b49b 51be 6e53 dabd 170a e43d
00000140: 869b 88be b562 a4be e87d 0d3e db04 d6bb
00000150: 15fc 463e af2b 2cbe e098 fd3d fa9e a3be
00000160: a4a5 9d3d 26ae d2bd eea7 d8bc 808f 16be
00000170: 3391 6e3d a4fc fa3d 5b22 8a3d d897 4d3e
00000180: 7d2d 5dbd 9987 5f3d a39a 40bd 6bdb 803e
00000190: f9a7 023e 2f4f d43d c0e8 5f3d dc3f e83d
000001a0: 1fb0 4d3e a142 833e ca9d 5bbe ad6a bfbd
000001b0: c0a8 22bd cdc4 7dbe 00b4 23be 7656 cb3d
000001c0: dea2 c23d d892 283e 61e4 8ebe 89d1 30be
000001d0: 753b 69be d8f3 78be 9514 a8be e384 18be
000001e0: 5d5b 9cbe 5151 96be e444 24bd 8fae 3c3e
000001f0: 620a 9c3d 0a6b cbbd 68fa 2f3e bbeb 0c3d
00000200: 2912 75be 91e9 9ebe d4b3 0fbe 024e e5bd
00000210: 2e9b 243e 4862 033e 2341 89be 418a 96bd
00000220: 377b 3b3e 2381 e63d 9bc9 8dbe 2369 793e
00000230: 06c4 2e3e 8719 6a3e 01e3 683e 7299 dabd
00000240: 5004 fb3d cda1 993c 827c e83d 034e 12be
00000250: 6bf7 27be 87e1 02be 60b1 cabd 1d4e a33d
00000260: 0c5f 43be 461f 22be 056f 06be 70f5 6abd
00000270: 5a90 89be 8837 a0be 0de3 053e 9fa0 1bbe
00000280: 5d44 2fbe 2984 73bd e8f7 6abe 81ca 7abe
00000290: 93d9 65be d515 c03d 2fbb e63c 186d 71be
000002a0: 9f56 13be 4d14 4d3e fb53 063e e224 3bbe
000002b0: 2823 7fbe c2be 41bc eb71 363c 5942 8dbe
000002c0: 2f2a 8cbe 0bae d3bd cb09 3a3e 09ef 633d
000002d0: b143 14bd 0c8c 233e dd44 5d3e 6dea 733d
000002e0: 3ee5 093e fc64 06be 5a63 34bc 02ca 083e
000002f0: e849 53be 2633 68be 0395 80be 623d 583e
00000300: 1977 a8bd 7265 8e3b 5677 623c 401f 4cbe
00000310: bbfb 6abe 54d0 b43d e42f 12be 6697 3bbd
00000320: 2204 86be dc70 b33d 91c6 5e3d 65ca c03d
00000330: 1208 05bd 0bb6 b7bd c179 273e 048a 63be
00000340: b562 55be 7594 f73d cb08 6abe e3b6 2c3e
00000350: ca13 6abe b87e 823e afbe 70bd 614d d43d
00000360: 1ceb 69be 8813 4b3e ea1c 23be ecd8 d5bd
00000370: 9426 de3d 99f0 09bb fb83 a4bc 38d7 9cbc
00000380: b61c b43d 9f93 72be d5d4 3b3e 3e35 af3d
00000390: 96ff 23be 6ec0 ff3c 7835 aabd 68ad 8dbe
000003a0: 4b5b 86be 8fe5 7abd 8205 a3bd ac2e 0a3e
000003b0: 062d 113e 94a8 033e 8dad 98be 5498 d73d
000003c0: e876 de3d 82fe fe3d 97d0 d839 7af0 80be
000003d0: 29f2 a5bc 2cee bd3d c173 493d 388e 2c3d
000003e0: 67af 293e 31c1 e9bd 3a3b 8fbe a77d e6bd
000003f0: f70e 72be e294 473e 843e 2b3e 1b14 ae3d

fc3.bias f4 [5]
-0.08799824 0.042107478 0.059769675 -0.091705985 -0.010994238
00000000: 6c38 b4bd e478 2c3d 0cd1 743d 59d0 bbbd
00000010: 2d21 34bc
